model_data.pth (torch, 6182 bytes, 6 tensors)

l1.weight f4 [8, 66]
000000 28 22 88 3e 35 be da be 55 b2 b9 3e 69 d9 27 be
       0.2658856 -0.4272324 0.3626887 -0.16391529
000010 c0 1f c4 3b 29 26 28 be b8 48 98 3e 3a bd 04 3f
       0.00598523 -0.16420807 0.2974298 0.51851237
000020 70 e6 c3 be c0 e3 04 3f 44 4b 8a 3e c6 f5 b7 3e
       -0.38261747 0.5191002 0.27010548 0.35929698
000030 08 33 0a 3f a9 44 ce bd f5 b2 f1 be 0e fc cf bd
       0.5398412 -0.1007169 -0.47206846 -0.101554975
000040 01 07 29 3d 8b bc 91 3e 1d 65 3a 3e a4 5a f4 bd
       0.041266445 0.2846416 0.18202634 -0.11931351
000050 7f 39 94 3e a0 02 00 bd 5b b7 f4 3e 66 7a 3d 3f
       0.28950116 -0.031252503 0.4779614 0.7401489
000060 f1 4d 5d bd 20 61 df bd 90 58 57 3e ca d1 a2 3d
       -0.05402941 -0.10907197 0.21029878 0.0795017
000070 d1 ed 9e 3c 4c b6 79 3e 1b da a4 be 7a 7d 61 3e
       0.01940051 0.24385947 -0.3219765 0.22020522
000080 d2 1b a8 3e 7b cb 3f be 3f d6 39 3e 18 c3 0f 3f
       0.32833725 -0.18729965 0.18148135 0.56157064
000090 02 04 12 3f 96 df 4e 3e 1f ef 22 3f 71 51 16 3f
       0.57037365 0.20202479 0.6364612 0.5871802
0000a0 c0 4d 51 3b e0 9b 02 3f 4c d1 67 3e e1 37 7c be
       0.0031937212 0.51019096 0.22638434 -0.24630691
0000b0 63 c2 d5 3e 5c e5 6b 3e 74 3d 8c be 31 c5 80 bd
       0.41749868 0.23036712 -0.27390635 -0.06287611
0000c0 1c de 98 3d 38 68 0f 3f 66 e7 6c be b1 40 42 3f
       0.07464239 0.560184 -0.23135146 0.7587996
0000d0 81 f5 13 be c1 bb ef bd 25 5b dc bd 04 31 cd bd
       -0.14449121 -0.11705733 -0.10759572 -0.100191146
0000e0 f7 1e bf be 45 84 c3 be f7 cb bf 3e 3d 58 e6 be
       -0.37328312 -0.3818685 0.374603 -0.44989195
0000f0 40 6b b4 3e 7c 20 9d be e9 e7 ec 3e 65 08 f0 be
       0.35238075 -0.30688846 0.46270683 -0.46881405
000100 b3 10 13 bf d0 4a c2 bd dd 37 29 be 8a f9 53 3f
       -0.57447356 -0.094869256 -0.16525216 0.8280264
000110 0a 9b 35 3e b4 07 b6 3b e0 d0 90 3e db 49 63 be
       0.17734924 0.0055551175 0.2828436 -0.22196142
000120 e4 9b 54 3e b0 2a b7 be c8 7f 72 3f 4f 33 86 bc
       0.20762593 -0.35774755 0.9472623 -0.016381888
000130 96 67 57 3e 8f a0 ef 3e a6 04 19 be 2b 7e c1 be
       0.21035609 0.46802184 -0.1494318 -0.3779157
000140 90 07 c3 be ca 66 58 be b5 54 d1 be 0e 57 f4 3d
       -0.38091707 -0.21132961 -0.4088494 0.11930667
000150 66 0e 3e be 16 e9 2a bd 80 c7 ae 3e ac 8f aa be
       -0.1856018 -0.041726194 0.3413658 -0.33312738
000160 8d c3 bf 3e 78 1b a9 be db 97 14 3f c8 3c 2a be
       0.3745388 -0.3302877 0.58044213 -0.16624749
000170 82 7f 30 be f8 f2 df 3e 89 68 0e 3f 15 e6 48 be
       -0.1723614 0.43740058 0.5562826 -0.1961902
000180 73 63 e2 bd 3a 5a a7 bc 2b ef 82 bd b0 7b 97 be
       -0.11054125 -0.020428766 -0.06393274 -0.29586554
000190 5b b3 55 be 87 4d c8 3e fc d0 a1 3e be ff 85 bc
       -0.208692 0.3912165 0.31604755 -0.016357299
0001a0 31 e9 c6 3e b1 0a 02 be 5f b6 10 3e fd fc 17 be
       0.38849786 -0.12699391 0.14132069 -0.14842601
0001b0 14 75 c5 be 1c 8e 1a be eb 17 cb bc 61 da a6 be
       -0.38565886 -0.15093273 -0.024791678 -0.32588485
0001c0 58 41 99 be fa 5a 74 be 56 18 ca be 26 a6 b2 be
       -0.29932666 -0.2386283 -0.39471692 -0.34892386
0001d0 99 dc fa 3e cc 6b 5c be a4 3b f0 be d2 85 b5 be
       0.48996428 -0.21525496 -0.46920502 -0.3545366
0001e0 81 7f 7c be d8 ec 15 3d e1 32 5d 3f b6 ec 9a be
       -0.24658014 0.036602825 0.8640576 -0.3025872
0001f0 11 eb 53 3e 8d 8d c2 3e ec e7 85 3e ed f9 dc 3e
       0.2069514 0.3799862 0.26153505 0.43159428
000200 d2 9f d1 3e 1f 5b 63 be 69 68 58 3e 20 3f 5c be
       0.40942246 -0.22202729 0.2113358 -0.21508455
000210 f6 85 20 3d 4f a8 dd bd 92 ec 6f be 80 9c f2 3e
       0.039190255 -0.10823118 -0.23430088 0.47385025
000220 9f a0 b2 3e d9 85 09 3f a2 68 88 bd fd 4b a7 be
       0.3488817 0.5371986 -0.06660582 -0.32675162
000230 97 20 a4 3c 17 e7 f2 be c3 56 8b 3c 03 05 a6 be
       0.020035071 -0.47441933 0.017009145 -0.324257
000240 5a 87 04 be 26 82 f3 3e 18 a9 c9 3e ee c6 6c 3e
       -0.12942258 0.47560233 0.3938682 0.2312276
000250 1b fe 44 3e 7c 4b 92 3e 96 b5 13 3e cd c9 d5 bd
       0.19237559 0.28573215 0.14424738 -0.10438881
000260 f0 a0 5b be 1a 3f b5 3e f8 4c ea be 86 bd d9 be
       -0.21448112 0.35399705 -0.45761847 -0.42527407
000270 7d cd ac 3d d4 5c 01 3f d5 ad 8c 3e d8 3f 2b 3e
       0.08437631 0.5053227 0.27476373 0.16723573
000280 99 c1 96 3e 61 2e 6e bb 5f bf fd 3e 65 1d fb 3c
       0.29444578 -0.0036343562 0.49560067 0.030653665
000290 68 79 02 3e 2d d0 19 3f 2a a2 83 3e 2d 77 da be
       0.12741625 0.60083276 0.2570966 -0.4266905
0002a0 65 fa cb be c8 ab be bd f2 98 d8 be 34 7c 82 3d
       -0.39839473 -0.093101084 -0.42304188 0.06371346
0002b0 52 97 04 3e f1 ef 83 3d 37 f5 65 3e 43 b2 02 3f
       0.12948349 0.064422496 0.22456823 0.51053256
0002c0 a7 e9 f3 bc de b8 19 3b 67 fd 12 3f a1 b5 a5 3e
       -0.0297745 0.0023456137 0.5741791 0.32365134
0002d0 49 00 02 3f 6d 0e 73 3d b5 28 a3 bd e0 b1 a9 be
       0.50781685 0.05933993 -0.079667486 -0.3314352
0002e0 ce 56 e9 3e 60 15 ff 3e e6 84 ce 3e 4f 7d ea bd
       0.4557404 0.49820995 0.40335768 -0.11449682
0002f0 5e 4e 82 3c dc 20 0a 3f 83 6a 73 be 0b 93 2b bd
       0.015906509 0.5395639 -0.237711 -0.041888278
000300 aa 06 04 be 91 43 75 bc 2f c7 86 be 69 83 27 3f
       -0.12893167 -0.014969722 -0.2632384 0.6543489
000310 c9 ac f2 3e 8b 95 81 3e 04 7d 1d 3f fd 53 8f be
       0.4739745 0.25309405 0.61518884 -0.27993765
000320 e3 37 20 bd a3 b7 4e 3e db 29 2a bc 4c 89 a6 3e
       -0.039115798 0.2018724 -0.010385956 0.32526624
000330 41 fd 13 be 5d cb 1b 3f 5a 4b 8f be 77 04 45 3e
       -0.14452077 0.6085718 -0.27987176 0.19239984
000340 75 13 2a bc 73 6a 87 3e 07 f4 28 3f 90 7a e6 3e
       -0.0103806155 0.26448402 0.65997356 0.45015383
000350 7e 1c 19 3f 1c 44 e3 3d 3c 8b a8 bd c5 3f e4 3e
       0.598091 0.11096975 -0.08229682 0.44579902
000360 c5 49 dd 3e 56 63 b3 bd 7f 27 73 3e 46 9a 41 3e
       0.43220344 -0.08759181 0.23745535 0.18906507
000370 2c 11 63 be 6c 49 87 bc 27 9a 1f be cb 6e 77 be
       -0.2217452 -0.016514502 -0.15586148 -0.24163358
000380 5e f8 b9 bd 3c e9 c4 bd 22 cd ad bb e3 f8 b3 3e
       -0.090805754 -0.096147984 -0.0053039948 0.35150823
000390 bb 84 39 3e d3 df a6 3e 13 fc 99 3e 78 a6 08 3f
       0.18117039 0.3259264 0.3007513 0.5337901
0003a0 d1 85 d3 be 29 61 8a be 76 40 8f be f2 b2 c6 3e
       -0.4131303 -0.27027252 -0.27978867 0.388084
0003b0 3a 3d 8f be 97 92 21 3f e8 87 df 3c a7 74 cf 3e
       -0.279764 0.63114303 0.027286485 0.40518686
0003c0 85 0b 3e 3f 48 b6 db 3d 13 fb 04 3f fe 56 ff 3e
       0.7423633 0.10728127 0.5194561 0.49871057
0003d0 9f dc d5 3e 28 f4 0d bf 45 a5 34 3f bb 56 41 3f
       0.41769883 -0.5545068 0.7056468 0.75522965
0003e0 26 e0 fd bd 4c d9 81 3e e6 56 c3 3e 3e dc cd 3e
       -0.123962685 0.25361097 0.38152236 0.40207094
0003f0 69 04 8b be c8 41 93 3c 7c 83 8f be 7e ff fa 3e
       -0.27151802 0.017975703 -0.28030002 0.4902305

l1.bias f4 [8]
000000 41 84 2f 3f ae 23 73 3f f0 e0 09 3f d1 4b 8f 3e
       0.6856118 0.9497632 0.5385885 0.2798753
000010 e6 72 e8 3e 53 84 5d 3f b1 a6 e0 3e 0e 7d 65 3f
       0.4540016 0.86530036 0.43877175 0.89643943

l2.weight f4 [8, 8]
000000 f8 ab c1 be 10 5b 60 3e 6b 5c d6 bd eb ec 25 be
       -0.37826514 0.21909738 -0.10466846 -0.16203658
000010 4e 4b dc bb 8a c0 e8 bd 3e 32 89 3e 85 8c 6d 3b
       -0.006722844 -0.11364849 0.26796144 0.0036247086
000020 60 98 a6 bc 22 bf ac be d7 31 a6 be 54 6f 93 3d
       -0.02033633 -0.33739573 -0.324599 0.071989685
000030 77 a7 84 be 60 86 9b be 32 b2 52 3e 38 f9 8e 3d
       -0.25909016 -0.30375957 0.20575789 0.069811285
000040 32 5e 04 3e c7 3a 4b bf 36 3a 6c 3f aa da 55 3f
       0.12926558 -0.7938656 0.9227632 0.8353678
000050 f5 28 4a bf 1a cc 47 3e 76 4f 4a 3f f9 ae 5a be
       -0.78968745 0.19511452 0.790275 -0.2135581
000060 e4 fd 94 3f 39 c8 a3 3f 66 be 05 bf 9c 7c 47 bf
       1.1639981 1.2795478 -0.5224365 -0.77924514
000070 69 88 f9 be e1 1f 8a 3e 78 21 cf 3e b3 d9 97 3f
       -0.48736885 0.26977447 0.40455222 1.1863312
000080 c2 2d 7d 3f b3 4a 0e bc 50 cb a9 bb b1 97 82 3d
       0.98897946 -0.008684802 -0.0051817074 0.06376589
000090 7f 4e a4 bf 82 06 b4 3f e0 a6 37 3f 9f b1 78 be
       -1.2836455 1.4064486 0.71739006 -0.24286507
0000a0 b4 2d 91 3f 5b 6a 52 bf 57 31 11 3e 37 e0 29 3f
       1.1342072 -0.82193536 0.14178978 0.6635775
0000b0 d0 49 91 3f 04 83 d4 3e 95 a8 d3 3e 73 84 aa bf
       1.1350651 0.41506207 0.41339555 -1.332167
0000c0 e2 4e 4d be b6 80 60 bf 13 fc 8b 3f 24 a7 af 3f
       -0.20049623 -0.876964 1.0936302 1.3722882
0000d0 5e 94 0e be c7 4c 61 bf af 47 3b 3f 77 2e 81 3f
       -0.13923785 -0.8800778 0.73156255 1.0092305
0000e0 ad e2 1d bf f4 3d a4 3f 32 d3 8e 3f 3b 0e 1d bf
       -0.61674005 1.2831407 1.1158202 -0.6134984
0000f0 85 27 90 3f b0 c9 7e 3f 2e 46 53 bf a0 a4 b0 3f
       1.126206 0.995265 -0.8252896 1.380024

l2.bias f4 [8]
000000 19 5d 87 be e7 e7 6d be e6 a2 e1 3e 26 cc 0d 3f
       -0.26438215 -0.23232995 0.44069594 0.5538963
000010 b7 11 e1 3e 2d ee 0b 3f 6e 12 8f 3e 37 e0 27 3f
       0.43958828 0.546603 0.27943748 0.655765

l3.weight f4 [7, 8]
000000 de ce 87 bd 80 13 fd bb 28 f4 a9 bf c2 bc 19 3f
       -0.06631254 -0.007723272 -1.3277636 0.60053647
000010 3e 16 d0 bf 21 af 9d bf 2b f7 c3 bf 0f 80 54 3f
       -1.6256788 -1.231907 -1.5309805 0.830079
000020 b8 a6 35 3d b4 6d dd bd 02 31 7e bf 74 ab 50 3f
       0.04434845 -0.1081194 -0.9929353 0.81511617
000030 3d 51 83 3f ed 02 73 bf b3 c4 92 bf 5d 22 97 be
       1.0259167 -0.9492634 -1.1466278 -0.29518405
000040 36 24 5f be f2 29 1b be 9f 93 5f 3e a9 ad 6a be
       -0.21791157 -0.1515272 0.21833657 -0.22917809
000050 4a b1 b8 bf 80 2e 8b bf 96 ea 4e 3f e7 7f 9c 3e
       -1.4429104 -1.0873566 0.808267 0.30566332
000060 65 b9 c7 bd 0b cf 9b be 45 dc 5d 3f 9f bf bf bf
       -0.09752158 -0.304314 0.8666423 -1.4980353
000070 8c a2 94 3e 24 50 1c bf 86 73 cc 3e b0 c9 a2 be
       0.29030263 -0.61059785 0.39931887 -0.317945
000080 d2 90 b0 3d 58 f8 11 3d c4 7e 3b bf c3 d8 95 bf
       0.08621372 0.03563723 -0.73240304 -1.1706775
000090 20 e9 5c bf e0 63 ed 3e d4 cb 9f bf ae 4f 3f 3f
       -0.8629322 0.4636526 -1.2484078 0.74730957
0000a0 9b 01 3a 3e 65 e6 8e be 60 f8 04 be 82 a9 12 bf
       0.18164675 -0.27910152 -0.12985373 -0.572899
0000b0 66 92 a3 bf 7f af 65 3f 55 ec 59 3e a7 42 4c bf
       -1.2779052 0.8972091 0.2128156 -0.79789203
0000c0 4f da 86 be 9f 48 8d be 07 62 bd 3e 9a d4 3f 3e
       -0.2633843 -0.27594468 0.3698885 0.18733445
0000d0 08 f1 4c 3f 20 9a 4f 3e db 4d 43 bf be 22 ce bf
       0.80055285 0.20273638 -0.76290673 -1.6104352

l3.bias f4 [7]
000000 1c 1f a9 3e d8 c5 c2 bb f0 54 51 be 2e 20 c0 bd
       0.33031547 -0.005943995 -0.20442557 -0.09381138
000010 d8 b7 95 3e 73 94 cb be 88 60 93 be
       0.29241824 -0.39761695 -0.28784585
